…
pip uninstall fla-core flash-linear-attention -y && pip install -U --no-use-pep517 git+https://github.com/fla-org/flash-linear-attention --no-deps
Usage
Token Mixing
We provide ``token mixing'' linear attention layers in fla.layers for you to use.
You can replace the standard multihead attention layer in your model with other linear attention layers.
Example usage is as follows:
>>> import torch
>>> from fla.layers import MultiScaleRetention
>>> batch_size, num_heads, seq_len, hidden_size = 32, 4, 2048, 1024
>>> device, dtype = 'cuda:0', torch.bfloat16
>>> retnet = MultiScaleRetention(hidden_size=hidden_size, num_heads=num_heads).to(device=device, dtype=dtype)
>>> retnet
MultiScaleRetention(
(q_proj): Linear(in_features=1024, out_features=1024, bias=False)
(k_proj): Linear(in_features=1024, out_features=1024, bias=False)
(v_proj): Linear(in_features=1024, out_features=2048, bias=False)
(g_proj): Linear(in_features=1024, out_features=2048, bias=False)
(o_proj): Linear(in_features=2048, out_features=1024, bias=False)
(g_norm_swish_gate): FusedRMSNormGated(512, eps=1e-05, activation=swish)
(rotary): RotaryEmbedding(dim=256, base=10000.0, interleaved=False, pos_idx_in_fp32=True)
)
>>> x = torch.randn(batch_size, seq_len, hidden_size).to(device=device, dtype=dtype)
>>> y, *_ = retnet(x)
>>> y.shape
torch.Size([32, 2048, 1024])
We provide the implementations of models that are compatible with ðŸ¤— Transformers library.
…
"fuse_cross_entropy": true,
"fuse_norm": true,
"fuse_swiglu": true,
"hidden_act": "swish",
"hidden_ratio": 4,
"hidden_size": 2048,
"initializer_range": 0.006,
"intermediate_size": null,
"max_position_embeddings": 2048,
"model_type": "gla",
"norm_eps": 1e-06,
"num_heads": 4,
"num_hidden_layers": 24,
"num_kv_heads": null,
"tie_word_embeddings": false,
"transformers_version": "4.50.1",
"use_cache": true,
"use_gk": true,
"use_gv": false,
"use_output_gate": true,
"use_short_conv": false,
"vocab_size": 32000
}
>>> AutoModelForCausalLM.from_config(config)
GLAForCausalLM(
(model): GLAModel(
(embeddings): Embedding(32000, 2048)
(layers): ModuleList(
(0-23): 24 x GLABlock(
(attn_norm): RMSNorm(2048, eps=1e-06)
(attn): GatedLinearAttention(
(q_proj): Linear(in_features=2048, out_features=1024, bias=False)
(k_proj): Linear(in_features=2048, out_features=1024, bias=False)
(v_proj): Linear(in_features=2048, out_features=2048, bias=False)
(g_proj): Linear(in_features=2048, out_features=2048, bias=False)
(gk_proj): Sequential(
(0): Linear(in_features=2048, out_features=16, bias=False)
(1): Linear(in_features=16, out_features=1024, bias=True)
)
(o_proj): Linear(in_features=2048, out_features=2048, bias=False)
(g_norm_swish_gate): FusedRMSNormGated(512, eps=1e-06, activation=swish)
)
(mlp_norm): RMSNorm(2048, eps=1e-06)
(mlp): GatedMLP(
(gate_proj): Linear(in_features=2048, out_features=5632, bias=False)
(up_proj): Linear(in_features=2048, out_features=5632, bias=False)
(down_proj): Linear(in_features=5632, out_features=2048, bias=False)
(swiglu_linear): SwiGLULinear()
)
)
)
(norm): RMSNorm(2048, eps=1e-06)
)
(lm_head): Linear(in_features=2048, out_features=32000, bias=False)
)
Fused Modules
We offer a collection of fused modules in fla.modules to facilitate faster training:
Rotary Embedding: rotary positional embeddings as adopted by the Llama architecture, a.k.a., Transformer++.
Norm Layers:
RMSNorm, LayerNorm and GroupNorm
RMSNormLinear, LayerNormLinear and GroupNormLinear to reduce memory usage of intermediate tensors for improved memory efficiency.
…
"intermediate_size": 4608,
"max_position_embeddings": 2048,
"model_type": "samba",
"norm_eps": 1e-05,
"num_hidden_layers": 2,
"pad_token_id": 0,
"rescale_prenorm_residual": false,
"residual_in_fp32": false,
"state_size": 16,
"tie_word_embeddings": false,
"time_step_floor": 0.0001,
"time_step_init_scheme": "random",
"time_step_max": 0.1,
"time_step_min": 0.001,
"time_step_rank": 144,
"time_step_scale": 1.0,
"transformers_version": "4.50.1",
"use_bias": false,
"use_cache": true,
"use_conv_bias": true,
"vocab_size": 32000
}
>>> AutoModelForCausalLM.from_config(config)
SambaForCausalLM(
(backbone): SambaModel(
(embeddings): Embedding(32000, 2304)
(layers): ModuleList(
(0): SambaBlock(
(mixer_norm): RMSNorm(2304, eps=1e-05)
(mixer): Mamba(
(conv1d): Conv1d(4608, 4608, kernel_size=(4,), stride=(1,), padding=(3,), groups=4608)
(in_proj): Linear(in_features=2304, out_features=9216, bias=False)
(x_proj): Linear(in_features=4608, out_features=176, bias=False)
(dt_proj): Linear(in_features=144, out_features=4608, bias=True)
(out_proj): Linear(in_features=4608, out_features=2304, bias=False)
)
(mlp_norm): RMSNorm(2304, eps=1e-05)
(mlp): GatedMLP(
(gate_proj): Linear(in_features=2304, out_features=6144, bias=False)
(up_proj): Linear(in_features=2304, out_features=6144, bias=False)
(down_proj): Linear(in_features=6144, out_features=2304, bias=False)
(swiglu_linear): SwiGLULinear()
)
)
(1): SambaBlock(
(mixer_norm): RMSNorm(2304, eps=1e-05)
(mixer): Attention(
(q_proj): Linear(in_features=2304, out_features=2304, bias=False)
(k_proj): Linear(in_features=2304, out_features=2304, bias=False)
(v_proj): Linear(in_features=2304, out_features=2304, bias=False)
(o_proj): Linear(in_features=2304, out_features=2304, bias=False)
(rotary): RotaryEmbedding(dim=128, base=10000.0, interleaved=False, pos_idx_in_fp32=True)
)
(mlp_norm): RMSNorm(2304, eps=1e-05)
(mlp): GatedMLP(
(gate_proj): Linear(in_features=2304, out_features=6144, bias=False)
(up_proj): Linear(in_features=2304, out_features=6144, bias=False)
(down_proj): Linear(in_features=6144, out_features=2304, bias=False)
(swiglu_linear): SwiGLULinear()
)
)
)
(norm_f): RMSNorm(2304, eps=1e-05)
)
(lm_head): Linear(in_features=2304, out_features=32000, bias=False)
)
During inference, you DO NOT need to revise anything for generation!
The model will produce output as-is, without any need for additional configurations or modifications.
Training
We provide a minimal framework called ðŸ”¥ flame built on top of torchtitan, for efficient training of fla models.
Checkout the GLA example for more details.
Evaluation
…
